…
for input shape (224, 224) will be loaded as the default.
Model: "model"
__________________________________________________________________________________________________
 Layer (type)                   Output Shape         Param #     Connected to                     
==================================================================================================
 input_1 (InputLayer)           [(None, 3, 145, 3)]  0           []                               
                                                                                                  
 Conv1 (Conv2D)                 (None, 2, 73, 32)    864         ['input_1[0][0]']                
                                                                                                  
 bn_Conv1 (BatchNormalization)  (None, 2, 73, 32)    128         ['Conv1[0][0]']                  
                                                                                                  
 Conv1_relu (ReLU)              (None, 2, 73, 32)    0           ['bn_Conv1[0][0]']               
                                                                                                  
 expanded_conv_depthwise (Depth  (None, 2, 73, 32)   288         ['Conv1_relu[0][0]']             
 wiseConv2D)                                                                                      
                                                                                                  
 expanded_conv_depthwise_BN (Ba  (None, 2, 73, 32)   128         ['expanded_conv_depthwise[0][0]']
 tchNormalization)                                                                                
                                                                                                  
 expanded_conv_depthwise_relu (  (None, 2, 73, 32)   0           ['expanded_conv_depthwise_BN[0][0
 ReLU)                                                           ]']                              
                                                                                                  
 expanded_conv_project (Conv2D)  (None, 2, 73, 16)   512         ['expanded_conv_depthwise_relu[0]
                                                                 [0]']                            
                                                                                                  
 expanded_conv_project_BN (Batc  (None, 2, 73, 16)   64          ['expanded_conv_project[0][0]']  
 hNormalization)                                                                                  
                                                                                                  
 block_1_expand (Conv2D)        (None, 2, 73, 96)    1536        ['expanded_conv_project_BN[0][0]'
                                                                 ]                                
                                                                                                  
 block_1_expand_BN (BatchNormal  (None, 2, 73, 96)   384         ['block_1_expand[0][0]']         
 ization)                                                                                         
                                                                                                  
 block_1_expand_relu (ReLU)     (None, 2, 73, 96)    0           ['block_1_expand_BN[0][0]']      
                                                                                                  
 block_1_pad (ZeroPadding2D)    (None, 3, 75, 96)    0           ['block_1_expand_relu[0][0]']    
                                                                                                  
 block_1_depthwise (DepthwiseCo  (None, 1, 37, 96)   864         ['block_1_pad[0][0]']            
 nv2D)                                                                                            
                                                                                                  
 block_1_depthwise_BN (BatchNor  (None, 1, 37, 96)   384         ['block_1_depthwise[0][0]']      
 malization)                                                                                      
                                                                                                  
 block_1_depthwise_relu (ReLU)  (None, 1, 37, 96)    0           ['block_1_depthwise_BN[0][0]']   
                                                                                                  
 block_1_project (Conv2D)       (None, 1, 37, 24)    2304        ['block_1_depthwise_relu[0][0]'] 
                                                                                                  
 block_1_project_BN (BatchNorma  (None, 1, 37, 24)   96          ['block_1_project[0][0]']        
 lization)                                                                                        
                                                                                                  
 block_2_expand (Conv2D)        (None, 1, 37, 144)   3456        ['block_1_project_BN[0][0]']     
                                                                                                  
 block_2_expand_BN (BatchNormal  (None, 1, 37, 144)  576         ['block_2_expand[0][0]']         
 ization)                                                                                         
                                                                                                  
 block_2_expand_relu (ReLU)     (None, 1, 37, 144)   0           ['block_2_expand_BN[0][0]']      
                                                                                                  
 block_2_depthwise (DepthwiseCo  (None, 1, 37, 144)  1296        ['block_2_expand_relu[0][0]']    
 nv2D)                                                                                            
                                                                                                  
 block_2_depthwise_BN (BatchNor  (None, 1, 37, 144)  576         ['block_2_depthwise[0][0]']      
 malization)                                                                                      
                                                                                                  
 block_2_depthwise_relu (ReLU)  (None, 1, 37, 144)   0           ['block_2_depthwise_BN[0][0]']   
                                                                                                  
 block_2_project (Conv2D)       (None, 1, 37, 24)    3456        ['block_2_depthwise_relu[0][0]'] 
                                                                                                  
 block_2_project_BN (BatchNorma  (None, 1, 37, 24)   96          ['block_2_project[0][0]']        
 lization)                                                                                        
                                                                                                  
 block_2_add (Add)              (None, 1, 37, 24)    0           ['block_1_project_BN[0][0]',     
                                                                  'block_2_project_BN[0][0]']     
                                                                                                  
 block_3_expand (Conv2D)        (None, 1, 37, 144)   3456        ['block_2_add[0][0]']            
                                                                                                  
 block_3_expand_BN (BatchNormal  (None, 1, 37, 144)  576         ['block_3_expand[0][0]']         
 ization)                                                                                         
                                                                                                  
 block_3_expand_relu (ReLU)     (None, 1, 37, 144)   0           ['block_3_expand_BN[0][0]']      
                                                                                                  
 block_3_pad (ZeroPadding2D)    (None, 3, 39, 144)   0           ['block_3_expand_relu[0][0]']    
                                                                                                  
 block_3_depthwise (DepthwiseCo  (None, 1, 19, 144)  1296        ['block_3_pad[0][0]']            
 nv2D)                                                                                            
                                                                                                  
 block_3_depthwise_BN (BatchNor  (None, 1, 19, 144)  576         ['block_3_depthwise[0][0]']      
 malization)                                                                                      
                                                                                                  
 block_3_depthwise_relu (ReLU)  (None, 1, 19, 144)   0           ['block_3_depthwise_BN[0][0]']   
                                                                                                  
 block_3_project (Conv2D)       (None, 1, 19, 32)    4608        ['block_3_depthwise_relu[0][0]'] 
                                                                                                  
 block_3_project_BN (BatchNorma  (None, 1, 19, 32)   128         ['block_3_project[0][0]']        
 lization)                                                                                        
                                                                                                  
 block_4_expand (Conv2D)        (None, 1, 19, 192)   6144        ['block_3_project_BN[0][0]']     
                                                                                                  
 block_4_expand_BN (BatchNormal  (None, 1, 19, 192)  768         ['block_4_expand[0][0]']         
 ization)                                                                                         
                                                                                                  
 block_4_expand_relu (ReLU)     (None, 1, 19, 192)   0           ['block_4_expand_BN[0][0]']      
                                                                                                  
 block_4_depthwise (DepthwiseCo  (None, 1, 19, 192)  1728        ['block_4_expand_relu[0][0]']    
 nv2D)                                                                                            
                                                                                                  
 block_4_depthwise_BN (BatchNor  (None, 1, 19, 192)  768         ['block_4_depthwise[0][0]']      
 malization)                                                                                      
                                                                                                  
 block_4_depthwise_relu (ReLU)  (None, 1, 19, 192)   0           ['block_4_depthwise_BN[0][0]']   
                                                                                                  
 block_4_project (Conv2D)       (None, 1, 19, 32)    6144        ['block_4_depthwise_relu[0][0]'] 
                                                                                                  
 block_4_project_BN (BatchNorma  (None, 1, 19, 32)   128         ['block_4_project[0][0]']        
 lization)                                                                                        
                                                                                                  
 block_4_add (Add)              (None, 1, 19, 32)    0           ['block_3_project_BN[0][0]',     
                                                                  'block_4_project_BN[0][0]']     
                                                                                                  
 block_5_expand (Conv2D)        (None, 1, 19, 192)   6144        ['block_4_add[0][0]']            
                                                                                                  
 block_5_expand_BN (BatchNormal  (None, 1, 19, 192)  768         ['block_5_expand[0][0]']         
 ization)                                                                                         
                                                                                                  
 block_5_expand_relu (ReLU)     (None, 1, 19, 192)   0           ['block_5_expand_BN[0][0]']      
                                                                                                  
 block_5_depthwise (DepthwiseCo  (None, 1, 19, 192)  1728        ['block_5_expand_relu[0][0]']    
 nv2D)                                                                                            
                                                                                                  
 block_5_depthwise_BN (BatchNor  (None, 1, 19, 192)  768         ['block_5_depthwise[0][0]']      
 malization)                                                                                      
                                                                                                  
 block_5_depthwise_relu (ReLU)  (None, 1, 19, 192)   0           ['block_5_depthwise_BN[0][0]']   
                                                                                                  
 block_5_project (Conv2D)       (None, 1, 19, 32)    6144        ['block_5_depthwise_relu[0][0]'] 
                                                                                                  
 block_5_project_BN (BatchNorma  (None, 1, 19, 32)   128         ['block_5_project[0][0]']        
 lization)                                                                                        
                                                                                                  
 block_5_add (Add)              (None, 1, 19, 32)    0           ['block_4_add[0][0]',            
                                                                  'block_5_project_BN[0][0]']     
                                                                                                  
 block_6_expand (Conv2D)        (None, 1, 19, 192)   6144        ['block_5_add[0][0]']            
                                                                                                  
 block_6_expand_BN (BatchNormal  (None, 1, 19, 192)  768         ['block_6_expand[0][0]']         
 ization)                                                                                         
                                                                                                  
 block_6_expand_relu (ReLU)     (None, 1, 19, 192)   0           ['block_6_expand_BN[0][0]']      
                                                                                                  
 block_6_pad (ZeroPadding2D)    (None, 3, 21, 192)   0           ['block_6_expand_relu[0][0]']    
                                                                                                  
 block_6_depthwise (DepthwiseCo  (None, 1, 10, 192)  1728        ['block_6_pad[0][0]']            
 nv2D)                                                                                            
                                                                                                  
 block_6_depthwise_BN (BatchNor  (None, 1, 10, 192)  768         ['block_6_depthwise[0][0]']      
 malization)                                                                                      
                                                                                                  
 block_6_depthwise_relu (ReLU)  (None, 1, 10, 192)   0           ['block_6_depthwise_BN[0][0]']   
                                                                                                  
 block_6_project (Conv2D)       (None, 1, 10, 64)    12288       ['block_6_depthwise_relu[0][0]'] 
                                                                                                  
 block_6_project_BN (BatchNorma  (None, 1, 10, 64)   256         ['block_6_project[0][0]']        
 lization)                                                                                        
                                                                                                  
 block_7_expand (Conv2D)        (None, 1, 10, 384)   24576       ['block_6_project_BN[0][0]']     
                                                                                                  
 block_7_expand_BN (BatchNormal  (None, 1, 10, 384)  1536        ['block_7_expand[0][0]']         
 ization)                                                                                         
                                                                                                  
 block_7_expand_relu (ReLU)     (None, 1, 10, 384)   0           ['block_7_expand_BN[0][0]']      
                                                                                                  
 block_7_depthwise (DepthwiseCo  (None, 1, 10, 384)  3456        ['block_7_expand_relu[0][0]']    
 nv2D)                                                                                            
                                                                                                  
 block_7_depthwise_BN (BatchNor  (None, 1, 10, 384)  1536        ['block_7_depthwise[0][0]']      
 malization)                                                                                      
                                                                                                  
 block_7_depthwise_relu (ReLU)  (None, 1, 10, 384)   0           ['block_7_depthwise_BN[0][0]']   
                                                                                                  
 block_7_project (Conv2D)       (None, 1, 10, 64)    24576       ['block_7_depthwise_relu[0][0]'] 
                                                                                                  
 block_7_project_BN (BatchNorma  (None, 1, 10, 64)   256         ['block_7_project[0][0]']        
 lization)                                                                                        
                                                                                                  
 block_7_add (Add)              (None, 1, 10, 64)    0           ['block_6_project_BN[0][0]',     
                                                                  'block_7_project_BN[0][0]']     
                                                                                                  
 block_8_expand (Conv2D)        (None, 1, 10, 384)   24576       ['block_7_add[0][0]']            
                                                                                                  
 block_8_expand_BN (BatchNormal  (None, 1, 10, 384)  1536        ['block_8_expand[0][0]']         
 ization)                                                                                         
                                                                                                  
 block_8_expand_relu (ReLU)     (None, 1, 10, 384)   0           ['block_8_expand_BN[0][0]']      
                                                                                                  
 block_8_depthwise (DepthwiseCo  (None, 1, 10, 384)  3456        ['block_8_expand_relu[0][0]']    
 nv2D)                                                                                            
                                                                                                  
 block_8_depthwise_BN (BatchNor  (None, 1, 10, 384)  1536        ['block_8_depthwise[0][0]']      
 malization)                                                                                      
                                                                                                  
 block_8_depthwise_relu (ReLU)  (None, 1, 10, 384)   0           ['block_8_depthwise_BN[0][0]']   
                                                                                                  
 block_8_project (Conv2D)       (None, 1, 10, 64)    24576       ['block_8_depthwise_relu[0][0]'] 
                                                                                                  
 block_8_project_BN (BatchNorma  (None, 1, 10, 64)   256         ['block_8_project[0][0]']        
 lization)                                                                                        
                                                                                                  
 block_8_add (Add)              (None, 1, 10, 64)    0           ['block_7_add[0][0]',            
                                                                  'block_8_project_BN[0][0]']     
                                                                                                  
 block_9_expand (Conv2D)        (None, 1, 10, 384)   24576       ['block_8_add[0][0]']            
                                                                                                  
 block_9_expand_BN (BatchNormal  (None, 1, 10, 384)  1536        ['block_9_expand[0][0]']         
 ization)                                                                                         
                                                                                                  
 block_9_expand_relu (ReLU)     (None, 1, 10, 384)   0           ['block_9_expand_BN[0][0]']      
                                                                                                  
 block_9_depthwise (DepthwiseCo  (None, 1, 10, 384)  3456        ['block_9_expand_relu[0][0]']    
 nv2D)                                                                                            
                                                                                                  
 block_9_depthwise_BN (BatchNor  (None, 1, 10, 384)  1536        ['block_9_depthwise[0][0]']      
 malization)                                                                                      
                                                                                                  
 block_9_depthwise_relu (ReLU)  (None, 1, 10, 384)   0           ['block_9_depthwise_BN[0][0]']   
                                                                                                  
 block_9_project (Conv2D)       (None, 1, 10, 64)    24576       ['block_9_depthwise_relu[0][0]'] 
                                                                                                  
 block_9_project_BN (BatchNorma  (None, 1, 10, 64)   256         ['block_9_project[0][0]']        
 lization)                                                                                        
                                                                                                  
 block_9_add (Add)              (None, 1, 10, 64)    0           ['block_8_add[0][0]',            
                                                                  'block_9_project_BN[0][0]']     
                                                                                                  
 block_10_expand (Conv2D)       (None, 1, 10, 384)   24576       ['block_9_add[0][0]']            
                                                                                                  
 block_10_expand_BN (BatchNorma  (None, 1, 10, 384)  1536        ['block_10_expand[0][0]']        
 lization)                                                                                        
                                                                                                  
 block_10_expand_relu (ReLU)    (None, 1, 10, 384)   0           ['block_10_expand_BN[0][0]']     
                                                                                                  
 block_10_depthwise (DepthwiseC  (None, 1, 10, 384)  3456        ['block_10_expand_relu[0][0]']   
 onv2D)                                                                                           
                                                                                                  
 block_10_depthwise_BN (BatchNo  (None, 1, 10, 384)  1536        ['block_10_depthwise[0][0]']     
 rmalization)                                                                                     
                                                                                                  
 block_10_depthwise_relu (ReLU)  (None, 1, 10, 384)  0           ['block_10_depthwise_BN[0][0]']  
                                                                                                  
 block_10_project (Conv2D)      (None, 1, 10, 96)    36864       ['block_10_depthwise_relu[0][0]']
                                                                                                  
 block_10_project_BN (BatchNorm  (None, 1, 10, 96)   384         ['block_10_project[0][0]']       
 alization)                                                                                       
                                                                                                  
 block_11_expand (Conv2D)       (None, 1, 10, 576)   55296       ['block_10_project_BN[0][0]']    
                                                                                                  
 block_11_expand_BN (BatchNorma  (None, 1, 10, 576)  2304        ['block_11_expand[0][0]']        
 lization)                                                                                        
                                                                                                  
 block_11_expand_relu (ReLU)    (None, 1, 10, 576)   0           ['block_11_expand_BN[0][0]']     
                                                                                                  
 block_11_depthwise (DepthwiseC  (None, 1, 10, 576)  5184        ['block_11_expand_relu[0][0]']   
 onv2D)                                                                                           
                                                                                                  
 block_11_depthwise_BN (BatchNo  (None, 1, 10, 576)  2304        ['block_11_depthwise[0][0]']     
 rmalization)                                                                                     
                                                                                                  
 block_11_depthwise_relu (ReLU)  (None, 1, 10, 576)  0           ['block_11_depthwise_BN[0][0]']  
                                                                                                  
 block_11_project (Conv2D)      (None, 1, 10, 96)    55296       ['block_11_depthwise_relu[0][0]']
                                                                                                  
 block_11_project_BN (BatchNorm  (None, 1, 10, 96)   384         ['block_11_project[0][0]']       
 alization)                                                                                       
                                                                                                  
 block_11_add (Add)             (None, 1, 10, 96)    0           ['block_10_project_BN[0][0]',    
                                                                  'block_11_project_BN[0][0]']    
                                                                                                  
 block_12_expand (Conv2D)       (None, 1, 10, 576)   55296       ['block_11_add[0][0]']           
                                                                                                  
 block_12_expand_BN (BatchNorma  (None, 1, 10, 576)  2304        ['block_12_expand[0][0]']        
 lization)                                                                                        
                                                                                                  
 block_12_expand_relu (ReLU)    (None, 1, 10, 576)   0           ['block_12_expand_BN[0][0]']     
                                                                                                  
 block_12_depthwise (DepthwiseC  (None, 1, 10, 576)  5184        ['block_12_expand_relu[0][0]']   
 onv2D)                                                                                           
                                                                                                  
 block_12_depthwise_BN (BatchNo  (None, 1, 10, 576)  2304        ['block_12_depthwise[0][0]']     
 rmalization)                                                                                     
                                                                                                  
 block_12_depthwise_relu (ReLU)  (None, 1, 10, 576)  0           ['block_12_depthwise_BN[0][0]']  
                                                                                                  
 block_12_project (Conv2D)      (None, 1, 10, 96)    55296       ['block_12_depthwise_relu[0][0]']
                                                                                                  
 block_12_project_BN (BatchNorm  (None, 1, 10, 96)   384         ['block_12_project[0][0]']       
 alization)                                                                                       
                                                                                                  
 block_12_add (Add)             (None, 1, 10, 96)    0           ['block_11_add[0][0]',           
                                                                  'block_12_project_BN[0][0]']    
                                                                                                  
 block_13_expand (Conv2D)       (None, 1, 10, 576)   55296       ['block_12_add[0][0]']           
                                                                                                  
 block_13_expand_BN (BatchNorma  (None, 1, 10, 576)  2304        ['block_13_expand[0][0]']        
 lization)                                                                                        
                                                                                                  
 block_13_expand_relu (ReLU)    (None, 1, 10, 576)   0           ['block_13_expand_BN[0][0]']     
                                                                                                  
 block_13_pad (ZeroPadding2D)   (None, 3, 11, 576)   0           ['block_13_expand_relu[0][0]']   
                                                                                                  
 block_13_depthwise (DepthwiseC  (None, 1, 5, 576)   5184        ['block_13_pad[0][0]']           
 onv2D)                                                                                           
                                                                                                  
 block_13_depthwise_BN (BatchNo  (None, 1, 5, 576)   2304        ['block_13_depthwise[0][0]']     
 rmalization)                                                                                     
                                                                                                  
 block_13_depthwise_relu (ReLU)  (None, 1, 5, 576)   0           ['block_13_depthwise_BN[0][0]']  
                                                                                                  
 block_13_project (Conv2D)      (None, 1, 5, 160)    92160       ['block_13_depthwise_relu[0][0]']
                                                                                                  
 block_13_project_BN (BatchNorm  (None, 1, 5, 160)   640         ['block_13_project[0][0]']       
 alization)                                                                                       
                                                                                                  
 block_14_expand (Conv2D)       (None, 1, 5, 960)    153600      ['block_13_project_BN[0][0]']    
                                                                                                  
 block_14_expand_BN (BatchNorma  (None, 1, 5, 960)   3840        ['block_14_expand[0][0]']        
 lization)                                                                                        
                                                                                                  
 block_14_expand_relu (ReLU)    (None, 1, 5, 960)    0           ['block_14_expand_BN[0][0]']     
                                                                                                  
 block_14_depthwise (DepthwiseC  (None, 1, 5, 960)   8640        ['block_14_expand_relu[0][0]']   
 onv2D)                                                                                           
                                                                                                  
 block_14_depthwise_BN (BatchNo  (None, 1, 5, 960)   3840        ['block_14_depthwise[0][0]']     
 rmalization)                                                                                     
                                                                                                  
 block_14_depthwise_relu (ReLU)  (None, 1, 5, 960)   0           ['block_14_depthwise_BN[0][0]']  
                                                                                                  
 block_14_project (Conv2D)      (None, 1, 5, 160)    153600      ['block_14_depthwise_relu[0][0]']
                                                                                                  
 block_14_project_BN (BatchNorm  (None, 1, 5, 160)   640         ['block_14_project[0][0]']       
 alization)                                                                                       
                                                                                                  
 block_14_add (Add)             (None, 1, 5, 160)    0           ['block_13_project_BN[0][0]',    
                                                                  'block_14_project_BN[0][0]']    
                                                                                                  
 block_15_expand (Conv2D)       (None, 1, 5, 960)    153600      ['block_14_add[0][0]']           
                                                                                                  
 block_15_expand_BN (BatchNorma  (None, 1, 5, 960)   3840        ['block_15_expand[0][0]']        
 lization)                                                                                        
                                                                                                  
 block_15_expand_relu (ReLU)    (None, 1, 5, 960)    0           ['block_15_expand_BN[0][0]']     
                                                                                                  
 block_15_depthwise (DepthwiseC  (None, 1, 5, 960)   8640        ['block_15_expand_relu[0][0]']   
 onv2D)                                                                                           
                                                                                                  
 block_15_depthwise_BN (BatchNo  (None, 1, 5, 960)   3840        ['block_15_depthwise[0][0]']     
 rmalization)                                                                                     
                                                                                                  
 block_15_depthwise_relu (ReLU)  (None, 1, 5, 960)   0           ['block_15_depthwise_BN[0][0]']  
                                                                                                  
 block_15_project (Conv2D)      (None, 1, 5, 160)    153600      ['block_15_depthwise_relu[0][0]']
                                                                                                  
 block_15_project_BN (BatchNorm  (None, 1, 5, 160)   640         ['block_15_project[0][0]']       
 alization)                                                                                       
                                                                                                  
 block_15_add (Add)             (None, 1, 5, 160)    0           ['block_14_add[0][0]',           
                                                                  'block_15_project_BN[0][0]']    
                                                                                                  
 block_16_expand (Conv2D)       (None, 1, 5, 960)    153600      ['block_15_add[0][0]']           
                                                                                                  
 block_16_expand_BN (BatchNorma  (None, 1, 5, 960)   3840        ['block_16_expand[0][0]']        
 lization)                                                                                        
                                                                                                  
 block_16_expand_relu (ReLU)    (None, 1, 5, 960)    0           ['block_16_expand_BN[0][0]']     
                                                                                                  
 block_16_depthwise (DepthwiseC  (None, 1, 5, 960)   8640        ['block_16_expand_relu[0][0]']   
 onv2D)                                                                                           
                                                                                                  
 block_16_depthwise_BN (BatchNo  (None, 1, 5, 960)   3840        ['block_16_depthwise[0][0]']     
 rmalization)                                                                                     
                                                                                                  
 block_16_depthwise_relu (ReLU)  (None, 1, 5, 960)   0           ['block_16_depthwise_BN[0][0]']  
                                                                                                  
 block_16_project (Conv2D)      (None, 1, 5, 320)    307200      ['block_16_depthwise_relu[0][0]']
                                                                                                  
 block_16_project_BN (BatchNorm  (None, 1, 5, 320)   1280        ['block_16_project[0][0]']       
 alization)                                                                                       
                                                                                                  
 Conv_1 (Conv2D)                (None, 1, 5, 1280)   409600      ['block_16_project_BN[0][0]']    
                                                                                                  
 Conv_1_bn (BatchNormalization)  (None, 1, 5, 1280)  5120        ['Conv_1[0][0]']                 
                                                                                                  
 out_relu (ReLU)                (None, 1, 5, 1280)   0           ['Conv_1_bn[0][0]']              
                                                                                                  
 lambda (Lambda)                (None, 5, 1280)      0           ['out_relu[0][0]']               
                                                                                                  
 lstm (LSTM)                    [(None, 5, 32),      168064      ['lambda[0][0]']                 
                                 (None, 32),                                                      
                                 (None, 32)]                                                      
                                                                                                  
 dropout (Dropout)              (None, 5, 32)        0           ['lstm[0][0]']                   
                                                                                                  
 self_attention (SelfAttention)  ((None, 512),       1536        ['dropout[0][0]']                
                                 (None, 16, 5))                                                   
                                                                                                  
 dense (Dense)                  (None, 2)            1026        ['self_attention[0][0]']         
                                                                                                  
==================================================================================================
Total params: 2,428,610
Trainable params: 2,394,498
Non-trainable params: 34,112
__________________________________________________________________________________________________
…
